app/src/main/ml/modelo.tflite (tflite, 12416 bytes, 6 tensors)

sequential_8/dense_27/BiasAdd/ReadVariableOp f4 [3]
000000 12 e3 cd 3e 89 2b 59 bd d4 6a 68 be
       0.40212303 -0.053020034 -0.22697002

sequential_8/dense_26/BiasAdd/ReadVariableOp f4 [32]
000000 70 e3 0d bc e2 ba 27 3e e0 42 69 bd 17 e2 1c bd
       -0.008660182 0.16379884 -0.056948543 -0.038301554
000010 7c 13 cd bd 1d 45 3c 3e 09 0e 4d 3e 74 28 02 be
       -0.10013482 0.1838574 0.20024885 -0.12710744
000020 bd 48 46 3e 03 b0 96 3e 78 cc 18 be fc be be 3d
       0.19363685 0.2943116 -0.14921749 0.09313771
000030 0f 6b 72 3e 94 ae 21 3e 68 0a 83 3d 7d 45 cc be
       0.23673652 0.15789253 0.06398469 -0.39896765
000040 e9 67 60 3e 45 45 3b 3d 7a 3e a9 3e a8 31 a5 be
       0.21914639 0.045720357 0.33055478 -0.32264447
000050 95 af 9b bc 0c 9b ab 3e 00 00 00 00 00 00 00 00
       -0.019004622 0.3351673 0.0 0.0
000060 a4 e7 15 3e 2c 0d 80 bc 7d 62 af be 1d a4 87 be
       0.14639145 -0.01563128 -0.34254828 -0.26492396
000070 a5 c6 a4 bc 92 6b ae bc 12 68 fe bb 46 8d 25 3d
       -0.020114252 -0.021291528 -0.007763871 0.040417932

sequential_8/dense_25/BiasAdd/ReadVariableOp f4 [64]
000000 c6 56 0a 3e a7 9c f8 3d 58 e9 5a bd 08 77 20 3e
       0.13509664 0.12139254 -0.05344519 0.15670407
000010 c4 76 34 bd ae 52 79 be f0 82 ba 3e 00 00 00 00
       -0.044058576 -0.24347946 0.36428022 0.0
000020 ef a2 69 3e c0 c3 13 be 00 00 00 00 a7 9e 82 3c
       0.2281606 -0.14430141 0.0 0.015944792
000030 6d 19 9b 3e 57 f5 d9 bd 17 71 1e bd 2f da 7c 3e
       0.30292836 -0.10642498 -0.03868207 0.24692605
000040 36 00 65 be ed d2 36 3e 7f 07 62 3e fe ba 84 3d
       -0.22363362 0.178539 0.22073172 0.064809784
000050 5b 71 a3 3b 51 df 06 3e 95 05 ee 3d 49 ac b2 be
       0.0049878783 0.13171126 0.116221584 -0.34897068
000060 28 81 dc be 28 84 8d 3e 55 41 d3 3d 00 00 00 00
       -0.43067288 0.2763989 0.103151955 0.0
000070 70 14 0c 3e 7c a6 5d be c8 a9 95 3b 5c 5e fd bd
       0.13679671 -0.2164554 0.0045673586 -0.12371513
000080 17 d9 13 3e 7f fe 10 bb 14 17 23 be 16 4a 32 bc
       0.14438282 -0.0022124348 -0.15926772 -0.010881921
000090 64 e4 7a 3d 4a 75 cf be 00 00 00 00 28 73 81 bc
       0.061252967 -0.40519172 0.0 -0.015801981
0000a0 d3 79 c1 3e c4 84 51 be b9 88 a9 bd ba e5 98 3d
       0.37788257 -0.20460802 -0.08278031 0.07465692
0000b0 9f 85 a9 be c4 5e 6a be aa 97 5f be b6 a1 4b be
       -0.33109757 -0.22887713 -0.21835199 -0.19885907
0000c0 06 ba 2e be 2a d6 81 3a 00 00 00 00 51 94 cb be
       -0.1706315 0.0009905745 0.0 -0.39761594
0000d0 ee c4 02 3e 28 39 31 3e 38 fc 06 be 61 86 dc 3c
       0.12770435 0.1730696 -0.13182151 0.026919546
0000e0 02 fb 39 be 1d 2c f0 bd aa 93 e5 bc 1c 95 85 bc
       -0.18162158 -0.11727164 -0.028024513 -0.016306452
0000f0 00 00 00 00 00 00 00 00 00 00 00 00 12 c8 0e 3c
       0.0 0.0 0.0 0.008714693

sequential_8/dense_25/MatMul f4 [64, 5]
000000 c8 a3 7f bd aa ec 3c 3e 1a d9 0a bf 97 57 83 be
       -0.062412053 0.18449655 -0.5423752 -0.25652763
000010 7b 28 f4 bd 31 4f ef 3d 06 a1 0f 3e ef 1f 21 bf
       -0.119217835 0.116850264 0.1402627 -0.6293935
000020 d6 55 33 3e 6b 5f 6c 3e 27 41 d1 3d f9 8d cd bd
       0.17513213 0.23083274 0.10217505 -0.10036845
000030 59 0b 86 3f 7d 6b 8e bd 4a e8 3b 3e 3a 03 3a 3e
       1.0472213 -0.069540955 0.1835033 0.18165293
000040 cb cf 8c 3e 5d d3 f2 be 89 d9 d1 bc 5b 3d b9 3e
       0.27502283 -0.47426882 -0.025616424 0.36179623
000050 08 df 32 3d 85 87 7e be 42 f4 9f 3c de 87 cb be
       0.04366973 -0.24856384 0.01952565 -0.39752096
000060 76 3f 91 be ef 26 9b 3d e7 41 81 3e d1 81 b8 3e
       -0.2836873 0.07575785 0.25245592 0.36036542
000070 e7 91 64 3e c1 cd bb be df 0a 7c 3e 8c 1c 07 3e
       0.22321282 -0.36680415 0.24613522 0.13194484
000080 4c 8e 3f 3f bb 5f 51 be 6c 29 a9 3d 54 7a 78 be
       0.748265 -0.20446675 0.08259854 -0.24265414
000090 c8 3a 2f bd 06 7f 24 be c0 06 67 bc 2e 35 8b 3e
       -0.042780668 -0.1606408 -0.01410073 0.2718901
0000a0 0b 89 8e 3e ef d3 9e 3d aa a4 57 3f 0a e8 97 be
       0.2783893 0.07755267 0.8423563 -0.2966922
0000b0 0b 76 92 3e 48 fa 65 3e f8 bb 73 be 00 15 1c bf
       0.28605685 0.22458756 -0.23802173 -0.60969543
0000c0 84 9b 91 3e 9d 3e af bd 38 f3 19 bd e6 43 83 bd
       0.28438962 -0.085568644 -0.037585467 -0.06409435
0000d0 26 12 01 be 6e f9 56 be 12 7e 1a be 7f 79 3c 3d
       -0.1260458 -0.20993587 -0.15087155 0.046014305
0000e0 a9 5b 48 be 71 5c 6b 3f 65 45 68 3e 11 f7 d3 bb
       -0.19566216 0.9193793 0.22682722 -0.0064686616
0000f0 41 d9 9b 3c 40 33 0e 3e bc 64 37 3f df f4 30 3e
       0.019024493 0.13886738 0.71638083 0.17280911
000100 d7 84 f6 3e 74 0f cf bd fd cc f1 3d de 32 97 3d
       0.48148224 -0.10110369 0.118066765 0.07382749
000110 91 5b ae be 22 ae 1f 3e db b4 f0 3d 7f 60 4d 3e
       -0.34054235 0.1559377 0.117532454 0.20056342
000120 f5 19 6d 3f f0 23 91 be 7e 56 17 3e 87 64 60 3b
       0.9261773 -0.2834773 0.14779088 0.0034239606
000130 9c 90 c2 3d a3 88 4f be 4f 59 54 3e eb cc 94 3e
       0.09500238 -0.20266967 0.20737194 0.2906259
000140 82 ce 73 3e d4 a1 29 bd 4c f0 82 bf 20 7f f6 bd
       0.23809245 -0.041414097 -1.0229583 -0.12035966
000150 b6 68 df bc 1f e2 7e 3e 9e 6d 6d 3c 33 dd 8f 3f
       -0.02727161 0.24890946 0.014491467 1.123938
000160 88 74 78 3e c1 7a 03 3c 24 d0 4b be 47 4b 1d 3e
       0.24263203 0.008024872 -0.19903618 0.15360747
000170 12 55 d4 bd 3d 8a e4 bd 60 6f 6c 3d bb b2 ab be
       -0.103677884 -0.11159179 0.057723403 -0.33534798
000180 f2 27 7c 3d 73 9c 84 be 6a bf b1 3e c7 85 46 be
       0.061561532 -0.2590061 0.3471635 -0.1938697
000190 ee 30 10 be bc 27 5d 3d 91 c9 b4 3d 87 f7 7d 3e
       -0.14081165 0.05399297 0.08827508 0.24801455
0001a0 a4 b9 96 3e 67 b9 2c 3e c6 a3 bc bd 58 b4 13 3f
       0.29438508 0.168676 -0.09210925 0.5769706
0001b0 a0 18 3a 3e c1 b0 8e 3d fb 97 3e 3d c4 8b 58 bd
       0.18173456 0.06967307 0.04653166 -0.052867666
0001c0 6b 77 92 3f 24 03 6c be 09 11 f1 bc 75 fe 04 bd
       1.1442693 -0.23048073 -0.029427068 -0.03246923
0001d0 be f5 8b 3e 70 00 50 bf fe 55 3e bd e2 e7 21 be
       0.27335924 -0.8125067 -0.046468727 -0.15811113
0001e0 e3 fc 86 3e 94 61 e4 3d 67 a3 8e be 3c ce 4e bd
       0.26364812 0.11151424 -0.2785904 -0.05048965
0001f0 aa a9 be be d9 0b 56 3e 85 03 42 3e 3a 3f 35 3d
       -0.37238818 0.20902957 0.18946655 0.04424975
000200 49 e8 88 3e 32 a1 f8 3e 27 cd 11 bd 7b 9d 67 3e
       0.2673972 0.48560482 -0.03559604 0.22618668
000210 28 bb 3e 3f af f7 cb 3d 74 69 b9 bc 74 44 63 bd
       0.7450433 0.09959351 -0.022633292 -0.055485204
000220 12 34 0c be 2b e9 78 be a0 c5 11 bd 60 01 d0 3c
       -0.13691738 -0.24307697 -0.03558886 0.02539128
000230 62 fa ad 3d 37 6b 47 be c5 35 42 3f 67 0d 8b bd
       0.08495022 -0.19474493 0.75863296 -0.06789666
000240 5a d6 cf bd b9 1a f9 3d 0e ad c7 3c 0c c1 1f bf
       -0.10148306 0.121633 0.024374511 -0.6240394
000250 e9 03 22 3e 83 fa 7a 3d 92 9f 58 3d 50 cf 79 be
       0.15821804 0.061274063 0.052886553 -0.2439549
000260 10 73 b5 be 4e 6e 39 be 9e cc c1 3d 58 ec 25 3e
       -0.35439348 -0.18108484 0.09462856 0.16203439
000270 42 24 a5 bd 64 a2 66 3f e4 7f be 3d 9c 8c fe bd
       -0.08063556 0.9009154 0.09301737 -0.12429163
000280 cb e7 7e 3d fa b3 8d be ac 07 10 3f 02 3c 38 be
       0.062232774 -0.27676374 0.56261706 -0.17991641
000290 7f 52 50 3e 04 ab 4b be 40 3d 7e bd be 46 93 3e
       0.2034397 -0.19889456 -0.06207013 0.2876491
0002a0 22 26 13 3e c1 7a 95 be 97 1f 3b be ae a8 53 3e
       0.14370015 -0.29195216 -0.1827377 0.20669815
0002b0 50 8f 09 bf c3 02 99 be 3d e9 8e be 66 d1 c7 bd
       -0.537343 -0.2988492 -0.27912322 -0.097567365
0002c0 f6 6a ee bd 26 d2 e4 bd 10 7e a6 bc e7 78 5b 3e
       -0.11641495 -0.11172895 -0.020323783 0.2143284
0002d0 04 ec 02 3d 54 90 94 be 3a 85 02 be 5f 76 60 bb
       0.031963363 -0.29016364 -0.12746134 -0.0034250242
0002e0 10 fd 23 3e d6 85 8b bc 9d 2a 72 3e 52 ad 84 bf
       0.16014504 -0.017031591 0.23649068 -1.0365393
0002f0 cf c0 1d be 2a 40 39 be 02 e4 8c be d1 ab 73 be
       -0.15405582 -0.18090883 -0.27517706 -0.23796012
000300 7d 96 93 be 98 f1 88 3e b8 3d 82 3e 30 cf c8 bd
       -0.2882575 0.2674682 0.25437713 -0.09805143
000310 60 41 ef bd 6f a6 ff bd e4 19 34 3e 38 3d 81 3e
       -0.11682391 -0.124829166 0.17588001 0.2524202
000320 33 18 8d 3e 6e d3 34 3d 1f d8 00 3f 94 44 f3 3d
       0.27557525 0.044146948 0.50329775 0.118783146
000330 be b6 e9 3e e2 a9 05 3e c0 63 9e bc 16 31 5a bf
       0.45647234 0.13053086 -0.019334674 -0.8523115
000340 42 d9 de 3d 04 24 ea be f7 ca 35 bd ad a8 00 3e
       0.108812824 -0.45730603 -0.044383015 0.12564345
000350 c3 bc 60 3f 6c 75 67 3e d0 9a 6d be fe 42 b8 bd
       0.8778803 0.22603387 -0.23203588 -0.08997153
000360 ce 72 d3 bd c7 a9 3d 3e 78 82 9d 3d 16 54 0d be
       -0.10324632 0.18521796 0.076909006 -0.13801607
000370 2e e5 d0 3d 22 90 57 3e 65 c6 80 bf 63 9a a9 3d
       0.101999626 0.21051076 -1.0060545 0.082814
000380 a1 48 cf be de a2 0c 3c 8c f3 2c 3e 78 65 1c bf
       -0.404851 0.008583752 0.16889781 -0.6109233
000390 8c 73 81 bd 3d 28 24 bd 5b f4 d8 3d 3f 6c 60 be
       -0.06320867 -0.040077437 0.10593482 -0.21916293
0003a0 20 96 1f bf 15 69 b1 bc 59 6f f6 be 00 cd 8f 3e
       -0.6233845 -0.021656552 -0.48131827 0.2808609
0003b0 ec db 89 3e 44 1a d1 3e c5 13 58 3e b7 ca bc bd
       0.269256 0.40840352 0.21101291 -0.09218352
0003c0 eb a0 59 3d f5 76 f8 3d f0 c1 49 bf fb 69 37 be
       0.05313198 0.12132064 -0.7881155 -0.17911522
0003d0 05 82 2d be 82 ac 3d 3e 63 b1 36 bd 6a e0 95 bf
       -0.1694413 0.18522838 -0.044602763 -1.1709111
0003e0 2b 5b 75 be 1e 2d ca 3b 64 26 88 bd 26 f0 84 bd
       -0.23960559 0.006169929 -0.066479474 -0.06491117
0003f0 6a 17 49 be f0 b3 2e 3d 4a 09 09 3e ed ba 67 3c
       -0.19637838 0.04265207 0.1338245 0.014143688

sequential_8/dense_26/MatMul f4 [32, 64]
000000 6f 9c 1d be d5 be 82 be fc ce dc 3d e9 e1 81 be
       -0.15391706 -0.25536218 0.10781667 -0.25367668
000010 88 ee a6 bd e5 9c 81 be d7 40 f4 bd 80 52 7d bd
       -0.08150965 -0.25315014 -0.1192643 -0.061846256
000020 a0 b6 05 be a1 5c f0 3d c0 d6 5c 3d 34 c6 b2 3d
       -0.13057947 0.117364176 0.05391574 0.087292105
000030 9f 06 4d 3e bf 95 12 3d a2 4d 96 3d dd f9 3a be
       0.20022057 0.03578734 0.07339026 -0.18259378
000040 1e 71 e6 3b 22 08 0c be bf f9 32 be a5 16 0b be
       0.0070325276 -0.13674977 -0.17478083 -0.13582857
000050 8c e7 d7 bd ec 47 5c 3e 4e 64 e1 bd 69 86 7d bd
       -0.10542211 0.21511811 -0.1100546 -0.06189576
000060 c9 7d 5b be cd bd 45 3e 1b 13 da bd 60 e5 0f 3e
       -0.21434702 0.19310685 -0.10648175 0.14052343
000070 2d 41 4d 3e d7 5a 0c bd f2 1e 3f be 8f d7 68 3e
       0.20044394 -0.03426632 -0.18664148 0.22738479
000080 66 7c f8 3d fa da 0d bd 88 1c de 3d c2 2c 4c 3e
       0.12133102 -0.03463266 0.10845286 0.19938949
000090 a4 34 3b 3e 17 1e 77 be 30 c0 76 3e 6b a1 09 be
       0.182818 -0.24132572 0.24096751 -0.13440482
0000a0 ef 1c c0 3d 43 9b 77 3e 19 82 8b 3e 2f 9d a2 3e
       0.09380519 0.24180321 0.27247694 0.31760547
0000b0 55 90 e9 3d bb fc 80 3d 23 05 3d 3d f1 8a b8 bc
       0.11404482 0.062982045 0.046147477 -0.02252719
0000c0 d9 04 62 be 89 6e db bd b0 0b 2a be 31 ff 41 3c
       -0.22072162 -0.10714442 -0.16606021 0.0118406275
0000d0 b9 c4 f0 3d 81 2b 4a 3e fe fb 8b bd 42 6f 96 3d
       0.11756272 0.19743158 -0.06835173 0.073454395
0000e0 d7 f8 f8 3d 22 68 0c be 36 2e 5f be 1c 78 46 3e
       0.121568374 -0.13711599 -0.21794972 0.19381756
0000f0 50 66 1a bd 98 88 9c bd 58 cf d2 bd fb 7a 66 3e
       -0.03769523 -0.07643241 -0.10293454 0.22507851
000100 cc 61 a1 bd 3f bb 7c be e5 f2 73 3e 63 50 66 be
       -0.078799814 -0.24680804 0.23823126 -0.22491603
000110 b5 2b 3e 3e b4 4e 6b 3e 97 a1 3f 3e 20 46 c2 bc
       0.1857136 0.22979242 0.18713985 -0.023715079
000120 ef 1a 69 be de 7c 1f be f8 0a 6e 3e d4 eb 00 3d
       -0.2276418 -0.15574977 0.23246372 0.031474903
000130 9d bd 6e 3e 5c 1b 84 3e 80 c9 4e 3e 1e f2 3e be
       0.23314519 0.25802124 0.20194054 -0.18647048
000140 cf b9 1a be 77 72 5b 3e b7 8c f5 bd dd bd d0 3d
       -0.15109943 0.21430384 -0.1198973 0.101924635
000150 1e ba 30 be db 93 d0 bd c9 29 12 3e 75 a2 14 3e
       -0.17258498 -0.10184451 0.14273752 0.14515097
000160 96 7b 3a 3e 83 51 4b 3e 4c 15 57 3e 70 5f 6a be
       0.18211207 0.19855313 0.21004218 -0.22887969
000170 24 8a 60 3d 2a 1c 0f 3e c7 3e 89 be 4a 37 2f 3e
       0.05481924 0.13975587 -0.26805708 0.17110935
000180 3b cc 98 bd 91 ff b1 3d d9 40 2f 3d ac 74 41 3e
       -0.07460829 0.086913235 0.042786453 0.18892163
000190 d3 94 cc bd 03 f5 51 bb 38 d3 f6 bd 51 b2 5b be
       -0.099893235 -0.0032036908 -0.120520055 -0.21454741
0001a0 51 25 a7 bb a4 4d e2 3d b9 01 2e be cd 35 a3 3c
       -0.005100884 0.11049965 -0.16992845 0.019923115
0001b0 42 e8 13 be 65 b8 96 3d ad a3 17 bd 75 8e 41 3d
       -0.14444068 0.07359389 -0.037021328 0.047255
0001c0 0e e7 da bd 29 95 72 be b0 e2 09 3d b2 ff 39 3e
       -0.106886014 -0.23689713 0.03366345 0.18163946
0001d0 52 d2 0a 3d c0 46 34 3e 0c e8 1d bd ac bd b5 bc
       0.033891983 0.17605114 -0.038551375 -0.02218517
0001e0 53 0d ef bd 11 99 52 be 87 6e 87 bd 9b 70 66 be
       -0.11672463 -0.20566203 -0.06612878 -0.22503893
0001f0 04 29 13 be cc 22 6a 3e 10 b1 4d 3d e4 93 60 be
       -0.14371115 0.22864836 0.050217688 -0.21931416
000200 5e 82 08 be ef 52 1e bc 70 fa 40 be e4 fb 1e be
       -0.13330981 -0.009663328 -0.18845534 -0.15525776
000210 4f 28 82 be c9 8a 6b bc 71 3c 5d be c4 dd 55 3e
       -0.25421378 -0.014376351 -0.21605088 0.20885378
000220 f2 8b 0e 3e 5e 3d 9f 3d c8 3b 9a bd c5 ac 57 3e
       0.13920572 0.07775377 -0.075309336 0.21062
000230 55 90 b8 bc 56 b1 92 be 22 d1 80 be 56 55 70 be
       -0.02252976 -0.28650922 -0.25159556 -0.23470053
000240 7d 51 f7 bd 9f 8a 32 3e 48 18 65 be 39 47 13 be
       -0.120760895 0.17435692 -0.22372544 -0.14382638
000250 ae f8 9a be 29 f7 14 bd 28 39 24 be ea 68 ac 3d
       -0.30267853 -0.036368523 -0.16037428 0.08418448
000260 6d 45 1f be 65 31 a5 3d 97 59 6c be e0 54 30 bd
       -0.15553828 0.08066062 -0.23081051 -0.043049693
000270 66 e3 1f 3e 65 e0 1a bd 12 58 69 be b2 55 c2 3d
       0.1561409 -0.037811656 -0.22787502 0.09489001
000280 2b 0b 5a 3e 75 d6 cc bd f1 b0 08 bc b0 76 e4 3d
       0.21293323 -0.10001842 -0.008342967 0.1115545
000290 1a 64 74 3e 56 e3 62 be 00 71 cb 3b a0 04 83 3c
       0.2386631 -0.22157034 0.006208539 0.015993416
0002a0 77 d0 16 3e 56 ff 24 be 03 40 4b 3e ee 9d bb be
       0.1472796 -0.16113028 0.19848637 -0.36643928
0002b0 f6 3d cf 3d 6a 5d 9f 3d 4b 22 6c 3d 99 08 e2 3d
       0.1011924 0.07781489 0.05764989 0.11036796
0002c0 02 4e f1 3d df 82 36 3d e0 3d 77 bd 34 17 55 3e
       0.11782457 0.044558402 -0.060361743 0.20809633
0002d0 c7 4d a9 bd 28 07 5f 3e 61 53 ad 3d 21 ab 7d be
       -0.08266788 0.21780074 0.08463169 -0.24772312
0002e0 45 d9 32 3e 12 22 34 3e 28 41 3a 3e 8a e0 1b 3e
       0.17465694 0.17591122 0.18188918 0.15222374
0002f0 40 9a 2c be 18 7c 03 be 64 6e 3d 3e 7d 88 78 be
       -0.16855717 -0.12840307 0.18499142 -0.24270816
000300 c2 a0 c5 3c e2 bc ff 3d 9d 10 f0 bd 41 c2 bb 3d
       0.024124507 0.124871984 -0.11721919 0.0916791
000310 b1 0d 73 be 51 43 09 be 3a 06 69 bd e0 05 5b bd
       -0.23735692 -0.13404585 -0.056890704 -0.0534724
000320 1f c1 56 be 49 76 ea 3d 70 05 ab bd fc 11 17 be
       -0.20972107 0.11448342 -0.083506465 -0.14752954
000330 be 04 db 3c 99 7b 93 be f6 6c fa bc 3b 81 f1 bd
       0.02673566 -0.28805235 -0.030569535 -0.11792227
000340 cf 38 07 3e eb c9 9d 3c 7c e6 df 3d da df 29 be
       0.13205265 0.019261321 0.10932633 -0.16589299
000350 c1 df 52 3e ee a4 46 3e 22 70 5e 3e 6a 77 45 3e
       0.20593168 0.19398853 0.21722463 0.19283834
000360 e9 8f f5 bd 60 2f 23 3e cc 10 eb bd 88 0f 33 3e
       -0.11990339 0.15936041 -0.11477813 0.17486393
000370 11 6f 2b be c5 0b 71 3e 33 ad 95 3d f0 7d 9b bd
       -0.16741587 0.23539646 0.07308426 -0.0759238
000380 9e 85 69 bc 01 8d 4b 3e 9d a0 a5 bd e0 73 d9 bc
       -0.014253048 0.19878007 -0.08087275 -0.026544511
000390 e2 6b 00 be f7 14 ca 3d bc 9f 0a 3e 60 86 f9 3c
       -0.12541154 0.0986728 0.13537496 0.030459583
0003a0 d2 52 bd bd 26 b6 73 3d 64 f4 cb bc fd 03 a8 3d
       -0.09244312 0.059499882 -0.024896808 0.08203886
0003b0 2a 2d 02 3d 14 f2 28 be aa d1 6d 3e 65 03 55 3d
       0.031781353 -0.16498595 0.23224512 0.05200519
0003c0 be 42 0c 3e 85 4f 43 3c f4 3a 06 be b0 12 ac 3d
       0.13697335 0.011920814 -0.13108426 0.08402002
0003d0 0f 23 04 3e 62 98 49 3d 88 eb f9 bd 6f 32 7f be
       0.12903999 0.04921759 -0.12203127 -0.24921583
0003e0 be b9 1a bb 44 b8 4d 3e 55 0c 0f be a2 05 21 be
       -0.0023609246 0.20089823 -0.13969548 -0.15724805
0003f0 c0 7f 26 bd 90 83 09 bd a0 02 a1 bc 7e fb 37 3e
       -0.040649176 -0.033572733 -0.019654572 0.1796703

sequential_8/dense_27/MatMul f4 [3, 32]
000000 1d 7f 85 3e e6 60 99 3e 9a 2a b2 3d b1 a4 3c 3d
       0.26073542 0.2995674 0.08699532 0.0460555
000010 3a c5 c1 be 05 77 fa 3d 92 8f 86 3e 86 79 9d be
       -0.37845784 0.122297324 0.2628141 -0.30756778
000020 97 f0 b5 bc e1 61 c3 3e a6 00 9b bd 9f 2e 96 3e
       -0.022209449 0.38160613 -0.07568483 0.29332444
000030 99 9b fd 3d 74 17 89 3e fe ee c9 3d 1f 78 a7 be
       0.123831935 0.26775706 0.09860037 -0.32708833
000040 8b e9 92 3e bd 74 6a 3d 28 fd b1 3e 8f 5b 33 be
       0.28693804 0.057240237 0.34763455 -0.17515396
000050 ae 69 4b 3a ac a0 14 be 3d 52 b3 be f6 2d 49 3e
       0.0007759583 -0.14514416 -0.3502368 0.19646439
000060 18 f4 b2 3d 35 8c 35 39 60 52 b3 be ed 67 c0 be
       0.087379634 0.00017313736 -0.35023785 -0.3757929
000070 4b f9 ea bb 09 ef c8 3d e9 5d 23 be f7 7d 27 be
       -0.0071708313 0.09811217 -0.15953793 -0.16356646
000080 08 de 61 be 33 e0 95 be 87 cc 1c 3e 6f 76 cc 3e
       -0.22057354 -0.29272613 0.15312396 0.39934108
000090 fd 69 d2 bd 9b d8 47 3e d2 cf 86 3e d3 2b ad 3d
       -0.10274122 0.19516222 0.2633043 0.084556244
0000a0 d3 41 7a be 02 a8 91 be f9 54 89 be a5 2c 72 bd
       -0.24439172 -0.28448492 -0.26822641 -0.059124608
0000b0 8c 6c c7 3d 3b f0 b0 3e 84 a4 a3 3d 2e d4 5d 3e
       0.097375005 0.3455828 0.07990363 0.21662971
0000c0 95 67 90 be a6 c3 45 be a5 79 09 bc 7a bc ad 3d
       -0.28204027 -0.19312915 -0.008390819 0.08483215
0000d0 63 1d 20 3e 30 05 c4 be 20 a0 cd 3c 53 d6 97 be
       0.1563621 -0.38285208 0.025100768 -0.29655704
0000e0 45 68 f8 bd 61 fb 43 3e d4 8d 5d bd 6a 7e bc 3e
       -0.12129263 0.19138862 -0.054090336 0.36815196
0000f0 f5 60 f7 3d 02 cb c4 3e 40 3e 73 3d 43 05 a0 be
       0.1207904 0.38436133 0.059385538 -0.31254014
000100 fd f2 a6 3d d4 f9 b5 3d 44 cc fc 3d 31 47 e3 3c
       0.08151815 0.088855416 0.12343648 0.027743908
000110 a6 7b ab be a4 cb 52 be 06 41 15 3e 21 39 82 3e
       -0.33492774 -0.20585495 0.14575586 0.2543421
000120 8c db 06 be 38 25 fa bc d1 e9 b1 3e 78 1e 79 3e
       -0.13169688 -0.030535325 0.347487 0.24328029
000130 2d 61 d9 3d 80 5a 9a 3c 4e bb c1 bd dc ab bc 3e
       0.10614238 0.018841982 -0.09459554 0.36849868
000140 6c 05 e0 3c a7 13 33 be 80 5e 88 be e0 a8 69 3b
       0.027346335 -0.17487966 -0.26634598 0.0035653636
000150 09 fe 0b 3d ff b3 a3 be bb 80 bf be d9 38 cd 3e
       0.034177814 -0.31973264 -0.374029 0.40082434
000160 9b e2 a8 3c 81 53 63 be 63 0f ea bd 9f c3 fe 3c
       0.020615866 -0.22199823 -0.11428716 0.031099139
000170 12 26 e6 3c 01 1e 93 be 35 06 bc bd 82 23 11 be
       0.028094325 -0.2873383 -0.091808714 -0.14173701
